…
            "\tFitting NeuralNetFastAI with 'num_gpus': 1, 'num_cpus': 4\n",
            "\tFitting with cpus=4, gpus=1, mem=14.2/31.9 GB\n",
            "Fitting Neural Network with parameters {'layers': None, 'emb_drop': 0.1, 'ps': 0.1, 'bs': 'auto', 'lr': 0.01, 'epochs': 'auto', 'early.stopping.min_delta': 0.0001, 'early.stopping.patience': 20, 'smoothing': 0.0}...\n",
            "Using 31/31 categorical features\n",
            "Using 399 cont features\n",
            "Automated batch size selection: 512\n",
            "TabularModel(\n",
            "  (embeds): ModuleList(\n",
            "    (0-2): 3 x Embedding(6, 4)\n",
            "    (3): Embedding(61, 16)\n",
            "    (4): Embedding(62, 16)\n",
            "    (5-7): 3 x Embedding(4, 3)\n",
            "    (8): Embedding(5, 4)\n",
            "    (9-14): 6 x Embedding(4, 3)\n",
            "    (15): Embedding(5, 4)\n",
            "    (16): Embedding(4, 3)\n",
            "    (17): Embedding(5, 4)\n",
            "    (18-20): 3 x Embedding(4, 3)\n",
            "    (21): Embedding(76, 18)\n",
            "    (22): Embedding(114, 23)\n",
            "    (23): Embedding(168, 28)\n",
            "    (24): Embedding(6, 4)\n",
            "    (25-29): 5 x Embedding(4, 3)\n",
            "    (30): Embedding(1304, 89)\n",
            "  )\n",
            "  (emb_drop): Dropout(p=0.1, inplace=False)\n",
            "  (bn_cont): BatchNorm1d(399, eps=1e-05, momentum=0.1, affine=True, track_running_stats=True)\n",
            "  (layers): Sequential(\n",
            "    (0): LinBnDrop(\n",
            "      (0): Linear(in_features=671, out_features=200, bias=False)\n",
            "      (1): ReLU(inplace=True)\n",
            "      (2): BatchNorm1d(200, eps=1e-05, momentum=0.1, affine=True, track_running_stats=True)\n",
            "      (3): Dropout(p=0.1, inplace=False)\n",
            "    )\n",
            "    (1): LinBnDrop(\n",
            "      (0): Linear(in_features=200, out_features=100, bias=False)\n",
            "      (1): ReLU(inplace=True)\n",
            "      (2): BatchNorm1d(100, eps=1e-05, momentum=0.1, affine=True, track_running_stats=True)\n",
            "      (3): Dropout(p=0.1, inplace=False)\n",
            "    )\n",
            "    (2): LinBnDrop(\n",
            "      (0): Linear(in_features=100, out_features=2, bias=True)\n",
            "    )\n",
            "  )\n",
            ")\n",
            "Automated epochs selection: training for 30 epoch(s). Estimated time budget use 560.83 / 579.03 sec\n",
            "Better model found at epoch 0 with valid_loss value: 0.10385915637016296.\n",
            "Better model found at epoch 6 with valid_loss value: 0.08888358622789383.\n",
…
            "        \"id_33\",\n",
            "        \"id_34\",\n",
            "        \"DeviceInfo\"\n",
            "    ],\n",
            "    \"language\": [],\n",
            "    \"bool\": []\n",
            "}\n",
            "\n",
            "\n",
            "Training data for TabularNeuralNetTorchModel has: 472432 examples, 430 features (417 vector, 13 embedding)\n",
            "Training on GPU (CUDA)\n",
            "Neural network architecture:\n",
            "EmbedNet(\n",
            "  (embed_blocks): ModuleList(\n",
            "    (0-2): 3 x Embedding(6, 4)\n",
            "    (3): Embedding(61, 15)\n",
            "    (4): Embedding(62, 16)\n",
            "    (5-7): 3 x Embedding(5, 3)\n",
            "    (8): Embedding(77, 18)\n",
            "    (9-10): 2 x Embedding(102, 21)\n",
            "    (11): Embedding(6, 4)\n",
            "    (12): Embedding(102, 21)\n",
            "  )\n",
            "  (main_block): Sequential(\n",
            "    (0): Linear(in_features=590, out_features=128, bias=True)\n",
            "    (1): ReLU()\n",
            "    (2): Dropout(p=0.1, inplace=False)\n",
            "    (3): Linear(in_features=128, out_features=128, bias=True)\n",
            "    (4): ReLU()\n",
            "    (5): Dropout(p=0.1, inplace=False)\n",
            "    (6): Linear(in_features=128, out_features=128, bias=True)\n",
            "    (7): ReLU()\n",
            "    (8): Dropout(p=0.1, inplace=False)\n",
            "    (9): Linear(in_features=128, out_features=128, bias=True)\n",
            "    (10): ReLU()\n",
            "    (11): Linear(in_features=128, out_features=2, bias=True)\n",
            "  )\n",
            "  (softmax): Softmax(dim=1)\n",
            ")\n",
            "Training tabular neural network for up to 1000 epochs...\n",
            "Epoch 1 (Update 1845).\tTrain loss: 0.1097, Val roc_auc: 0.8736, Best Epoch: 1\n",
            "Epoch 2 (Update 3690).\tTrain loss: 0.0987, Val roc_auc: 0.8816, Best Epoch: 2\n",
            "Epoch 3 (Update 5535).\tTrain loss: 0.0957, Val roc_auc: 0.8872, Best Epoch: 3\n",
…
